src/envs/overcooked/gan/data/generator_15x10_v2_commit-7a4799c.pth (torch, 826494 bytes, 11 tensors)

main.initial:32-128:convt.weight f4 [32, 128, 4, 4]
-0.003844091 -0.004635793 0.0022095197 0.046294738 -0.031164775 -0.016567132 -0.018887142 0.017234951
-0.014493042 9.8620585e-05 -0.0028043676 0.003113375 -0.023116685 0.008088399 0.011553311 -0.025568258
-0.0023719436 0.00042873895 0.009740933 -0.0020521528 0.0106578125 0.012478506 0.01085137 -0.022406466
-0.0009988708 0.011116473 -0.010638573 -0.0039052162 0.0011393575 -0.0026676764 0.003882745 0.006603315
-0.0011535378 -0.0019966105 -0.028984185 -0.03745932 -0.039963853 -0.010284559 0.0011193414 -0.012325084
0.0074118506 0.0021803034 -0.008168409 0.0036870313 -0.00661573 -0.00019164356 0.0025999784 0.0033610296
0.0180879 0.009484712 0.031684294 0.021329392 -0.012329946 -0.009293547 0.036341283 0.0058139227
0.0006997505 0.008867778 0.009145617 0.003782109 0.008584842 0.015126399 0.022445364 -0.0031836058
0.027341451 0.04792652 0.017586531 0.012257702 0.0018434476 -0.00477236 0.00012471445 0.0054968917
0.012670753 -0.014036694 -0.016473604 0.012879997 -0.011272078 -0.0036214616 -0.0008651582 0.016771039
-0.019676382 0.0033096224 -0.00076318416 0.014484226 0.007484793 0.00290449 0.004864601 0.0019686404
-0.00079170126 -0.0045170463 0.004145119 0.008821861 -0.0035784217 0.0031665883 -0.002180572 4.844686e-05
0.015862271 0.023347061 0.0043943413 0.030582743 0.022437599 -0.018534018 0.010065628 -0.013427002
-0.03493239 0.026496837 -0.0063682655 0.016479261 0.017157199 5.7532256e-05 -0.0050573153 -0.0015413329
0.0014912769 -0.0020839155 0.017131025 0.0023318203 0.032909967 0.009026267 0.013465856 0.04074495
0.0041792737 0.00051664986 0.0076593105 0.010046765 -0.005402742 -0.00024876554 0.0013775895 -0.0036414987
-0.0038658115 -0.0033543995 -0.010195981 -0.04083112 0.013127239 -0.00395797 -0.0006575845 -0.022139346
-0.01911522 0.008507368 -0.008415643 0.0008274923 -0.0035405494 0.0061786496 -0.0012886798 0.0037618638
0.0061595826 0.002364811 -0.017046783 -0.006821845 0.022621864 -0.0022659765 0.026756864 0.002629691
-0.011408791 -0.001937163 0.005323471 0.0089991195 0.0026438772 -0.011036394 0.004643797 0.0012405361
-0.0003213123 0.015411851 -0.003085709 -0.008653982 0.0092822155 0.014228547 0.016772084 0.04337368
-0.012084042 -0.0056444067 0.01647168 -0.0009767564 0.0073580258 -0.004326225 -0.0009880587 0.0020105818
0.0035073822 0.00087059545 -0.022502484 0.0105932 0.018239668 -0.031212205 0.008783388 -0.031107483
0.019042622 1.3284036e-05 0.0037418636 -0.0007614516 -0.009558643 -0.00066200044 0.0013507142 0.002301386
-0.029018875 0.009329216 0.017679285 -0.001534303 0.018072568 -0.00705455 -0.023518415 0.0075209867
0.02218598 0.0032415516 0.0155879045 0.013924406 -0.0008859668 -0.0018065533 -0.0026501683 -0.0010840257
-0.0047464566 -0.030289002 0.0069866246 0.032377042 0.0020348835 0.00018383858 0.0207328 0.03317873
0.009336963 -0.020756328 -0.013141391 0.0010302629 0.0028969836 0.0014792809 0.0040811477 -0.0026246929
0.010750005 -0.0029519089 -0.005484669 -0.016867468 0.009246264 0.014113862 -0.012658157 0.013029027
0.047865152 -0.028673463 -0.025089378 -0.018682195 0.00046627948 0.0002862615 -0.0010661593 0.0018635713
-0.008026051 -0.012187198 0.008490975 0.003280449 0.016336977 0.013797397 0.016534073 0.00026987412
0.0045820754 -0.0219763 0.021937838 0.007715869 0.0052593322 -0.0021105262 -0.0014341129 0.00012770684
00000000: 25ed 7bbb dae7 97bb 97cd 103b 8d9f 3d3d
00000010: 454d ffbc cbb7 87bc 35b9 9abc 5030 8d3c
00000020: 3974 6dbc 86d2 ce38 7bc9 37bb c409 4c3b
00000030: 345f bdbc 3485 043c 194a 3d3c 8674 d1bc
00000040: 9c72 1bbb 5ec8 e039 6f98 1f3c 697d 06bb
00000050: 1b9e 2e3c a672 4c3c f2c9 313c c48d b7bc
00000060: 8bec 82ba de21 363c 694d 2ebc a8ee 7fbb
00000070: 7e56 953a 2fd4 2ebb a775 7e3b 9f60 d83b
00000080: 4e32 97ba 91d9 02bb 3e70 edbc f26e 19bd
00000090: 23b1 23bd 9180 28bc ddb6 923a 26ef 49bc
000000a0: 1cdf f23b 6ce3 0e3b cad4 05bc 1fa2 713b
000000b0: c4c8 d8bb edf3 48b9 6664 2a3b b844 5c3b
000000c0: 132d 943c c465 1b3c 64c7 013d faba ae3c
000000d0: 8b03 4abc f643 18bc 99da 143d b882 be3b
000000e0: 766f 373a 284a 113c 7fd7 153c 42dd 773b
000000f0: 70a7 0c3c b7d4 773c 57df b73c 0ba4 50bb
00000100: 2efb df3c 994e 443d a111 903c 87d4 483c
00000110: d69f f13a 7561 9cbb c8c5 0239 451f b43b
00000120: fd98 4f3c 29fa 65bc a7f3 86bc 9f06 533c
00000130: 86ae 38bc 0b56 6dbb c9cb 62ba 6b63 893c
00000140: 5d30 a1bc 40e6 583b 6c10 48ba 3f4f 6d3c
00000150: ff42 f53b 4259 3e3b 3b67 9f3b 4e04 013b
00000160: 2c8a 4fba bb03 94bb c7d3 873b 9189 103c
00000170: f483 6abb 8986 4f3b ede7 0ebb 6b33 4b38
00000180: 98f1 813c 5642 bf3c 68fe 8f3b a988 fa3c
00000190: 0ecf b73c a7d4 97bc 4eea 243c eefc 5bbc
000001a0: 4415 0fbd e50f d93c e2ac d0bb 84ff 863c
000001b0: 418d 8c3c ca4e 7138 d6b7 a5bb 8d06 caba
000001c0: f376 c33a 4d92 08bb 5d56 8c3c 74d1 183b
000001d0: 9acc 063d e8e2 133c e59f 5c3c 2de4 263d
000001e0: 4af2 883b c96f 073a f4fa fa3b 309b 243c
000001f0: 7c09 b1bb bf6c 82b9 3c90 b43a 36a6 6ebb
00000200: 8e59 7dbb 7cd5 5bbb 0b0d 27bc 883e 27bd
00000210: a213 573c dcb1 81bb c061 2cba 935d b5bc
00000220: 8697 9cbc 7d62 0b3c c4e1 09bc 11ec 583a
00000230: 9008 68bb 4576 ca3b ebe8 a8ba 9a89 763b
00000240: 53d6 c93b f2fa 1a3b b2a5 8bbc c989 dfbb
00000250: 7d51 b93c c780 14bb 3631 db3c e556 2c3b
00000260: f0eb 3abc 67e8 fdba 8370 ae3b 0b71 133c
00000270: e644 2d3b fed1 34bc fe2a 983b 7c99 a23a
00000280: cf75 a8b9 fd81 7c3c 9b39 4abb 6ec9 0dbc
00000290: 6f14 183c da1e 693c 9c65 893c 9aa8 313d
000002a0: 25fc 45bc b7f4 b8bb 9eef 863c 8206 80ba
000002b0: 981b f13b 01c3 8dbb c081 81ba f7c3 033b
000002c0: 1cdc 653b ac38 643a 2157 b8bc 1a8f 2d3c
000002d0: 5b6b 953c bdb0 ffbc 33e8 0f3c 1fd5 febc
000002e0: 46ff 9b3c 80de 5e37 0e3a 753b 279c 47ba
000002f0: db9b 1cbc 198a 2dba 730a b13a dad2 163b
00000300: feb8 edbc 91d9 183c 26d4 903c aa1a c9ba
00000310: ec0c 943c db29 e7bb b1a9 c0bc 9c72 f63b
00000320: 5fbf b53c 3670 543b 6964 7f3c 3123 643c
00000330: 3a40 68ba dfc9 ecba 72ae 2dbb de15 8eba
00000340: 2a88 9bbb a420 f8bc 0ef0 e43b ca9d 043d
00000350: ae5b 053b cbc4 4039 d5d7 a93c 6ce6 073d
00000360: 10fa 183c 2d09 aabc fd4e 57bc e309 873a
00000370: 52db 3d3b 6ee4 c13a 26bb 853b 0a03 2cbb
00000380: ca20 303c d074 41bb bdb8 b3bb a52d 8abc
00000390: a47d 173c d43d 673c 2964 4fbc b377 553c
000003a0: 400e 443d 9ce4 eabc 3d88 cdbc 670b 99bc
000003b0: f976 f439 5e15 9639 5fbe 8bba 1443 f43a
000003c0: b37f 03bc d0ac 47bc bb1d 0b3c cdfc 563b
000003d0: 20d5 853c 7a0e 623c 7772 873c e47d 8d39
000003e0: 3c25 963b a407 b4bc fbb6 b33c 67d5 fc3b
000003f0: 7a56 ac3b c150 0abb d8f8 bbba 0be9 0539

main.initial:128:batchnorm.weight f4 [128]
0.95688826 0.92916995 0.9256359 0.97814757 1.0206841 0.93200177 0.97484607 0.8797134
0.9316857 1.0085084 0.99082536 0.9324529 0.96796227 0.9618891 0.9374039 1.0320389
0.97554487 0.9362278 0.924383 0.91275096 0.9614605 0.99958974 0.92564416 1.0417563
0.9738174 0.92881477 1.027126 0.936711 1.013037 1.0008513 0.9298472 1.0023735
0.9623466 0.95290214 0.97429484 0.9586682 0.9158691 0.98950154 0.96923715 1.0072827
0.9585452 0.9841223 0.9434764 0.92239535 0.96060133 1.0146656 1.0102751 1.0276699
0.9459923 0.9691922 0.952023 0.965051 0.97559935 1.001191 0.98760796 0.9915199
0.9135321 0.8488948 1.078179 1.0179541 0.9821818 0.90045506 0.93077624 0.9578228
0.9668431 0.9632873 0.9619316 0.9538611 0.95018387 0.9267489 1.0205201 0.9460457
0.91940725 0.96839815 0.9429811 0.9978419 0.9588155 0.9631128 0.91305405 0.99749714
0.95217013 0.9893688 0.8890631 0.97457206 0.98928875 0.96300894 1.032136 0.9081352
0.9414786 1.0234603 0.9776699 1.0137597 0.9400304 0.9932935 1.0697557 0.9958837
0.9625209 0.96435523 0.96279067 0.98293096 0.96616405 0.9522304 0.9733896 1.0214838
1.0226189 0.92300534 0.95650095 0.97865665 1.0195441 0.9276817 0.9671973 0.8712082
0.95058995 1.0505129 0.9346625 0.9051266 1.0071629 0.9512388 1.0105889 0.9693373
0.89498264 0.94891745 0.9897787 0.84982926 0.9734871 0.9590084 0.9648112 0.95135975
00000000: a1f6 743f 15de 6d3f 79f6 6c3f e167 7a3f
00000010: c7a5 823f ab97 6e3f 838f 793f e634 613f
00000020: f482 6e3f ce16 813f bba6 7d3f 3cb5 6e3f
00000030: 60cc 773f 5d3e 763f b4f9 6f3f da19 843f
00000040: 4fbd 793f a0ac 6f3f 5da4 6c3f 0caa 693f
00000050: 4622 763f 1de5 7f3f 04f7 6c3f 4558 853f
00000060: 194c 793f cec6 6d3f dd78 833f 4bcc 6f3f
00000070: 32ab 813f e51b 803f 770a 6e3f c64d 803f
00000080: 595c 763f 65f1 733f 636b 793f 476b 753f
00000090: 6676 6a3f f94f 7d3f ed1f 783f a4ee 803f
000000a0: 3863 753f 70ef 7b3f ab87 713f 1a22 6c3f
000000b0: f8e9 753f 90e0 813f b250 813f b08a 833f
000000c0: 8d2c 723f fb1c 783f c8b7 733f 950d 773f
000000d0: e1c0 793f 0727 803f e0d3 7c3f 40d4 7d3f
000000e0: 3ddd 693f 2b51 593f c501 8a3f 524c 823f
000000f0: 4470 7b3f 3984 663f 5a47 6e3f e033 753f
00000100: 0883 773f ff99 763f 2641 763f 3e30 743f
00000110: 403f 733f 6a3f 6d3f 67a0 823f 0d30 723f
00000120: 465e 6b3f f1e8 773f 3667 713f 9172 7f3f
00000130: ef74 753f 8f8e 763f e9bd 693f f95b 7f3f
00000140: 6cc1 733f 4647 7d3f a499 633f 8e7d 793f
00000150: 0742 7d3f c187 763f 081d 843f 8c7b 683f
00000160: be04 713f bf00 833f 9348 7a3f e1c2 813f
00000170: d5a5 703f 7c48 7e3f c1ed 883f 3cf2 7e3f
00000180: c567 763f fcdf 763f 7379 763f 5da1 7b3f
00000190: 8756 773f 5fc5 733f 1030 793f fbbf 823f
000001a0: 2de5 823f 144a 6c3f 3fdd 743f 3e89 7a3f
000001b0: 6c80 823f 8c7c 6d3f 3e9a 773f 8007 5f3f
000001c0: dd59 733f 3577 863f 0b46 6f3f 60b6 673f
000001d0: b7ea 803f 6384 733f fa5a 813f 7d26 783f
000001e0: 951d 653f 41ec 723f 2362 7d3f 698e 593f
000001f0: 7336 793f 9381 753f defd 763f 508c 733f

main.initial:128:batchnorm.bias f4 [128]
-0.024105763 0.10038917 0.16795938 0.09327755 -0.012807586 0.26885045 -0.026753273 0.23685987
0.09749304 0.1522994 0.07861914 0.08660801 0.0017889244 0.06465362 0.07078461 -0.025143396
0.023164257 0.02037332 0.23507293 0.19292203 0.14718722 0.0004848445 0.14775999 -0.06660957
0.10850143 0.034055624 0.03979755 0.10995722 -0.004241599 0.027690774 0.12762707 0.1390354
0.12302865 0.27194002 0.13838184 0.19369467 0.2701807 -0.033762082 0.07716975 -0.03145407
0.06263729 0.20643568 0.11477042 -0.0113531705 0.14256752 -0.008944533 0.15884112 0.011456339
0.09114803 0.0046147774 0.05736739 0.15275648 -0.03137455 0.012859963 0.037126444 0.064990774
0.2557237 0.28433007 -0.068024114 -0.037866827 -0.0111782225 0.18074268 0.14074555 0.15869331
0.0827592 0.13607143 0.13548 0.1055159 0.19051616 0.18325715 -0.022275358 0.13579257
0.12736997 0.09651244 0.106467694 0.17296863 0.007234559 0.024100037 0.23356192 0.06732672
0.0862627 0.041276775 0.20490678 0.12562369 0.052537814 0.16390604 -0.04191397 0.19561532
0.097577035 0.035940677 0.20184086 -0.007914447 0.17355184 -0.014770934 -0.010107447 0.10782682
0.18518585 0.17368601 -0.040567618 0.13196951 0.05953467 0.07332958 0.03632442 0.07459545
-0.008125522 0.18934853 0.10084681 0.1389587 -0.0009610195 0.22254662 0.020319613 0.28303307
0.10483877 -0.01371145 0.15060933 0.2858339 0.0062635285 0.15119836 0.06805381 0.1466796
0.26366764 0.27497324 0.034952693 0.29789186 0.11954986 0.25161988 0.009824491 0.09484987
00000000: 7379 c5bc d698 cd3d 8bfd 2b3e 4d08 bf3d
00000010: e9d6 51bc c4a6 893e ae29 dbbc 658b 723e
00000020: 6eaa c73d 60f4 1b3e 1203 a13d 8a5f b13d
00000030: 587a ea3a 1e69 843d 86f7 903d 86f9 cdbc
00000040: f8c2 bd3c f3e5 a63c f5b6 703e 5a8d 453e
00000050: 3fb8 163e ba32 fe39 654e 173e 996a 88bd
00000060: ff35 de3d e97d 0b3d c102 233d 4031 e13d
00000070: 1cfd 8abb c3d7 e23c acb0 023e 4c5f 0e3e
00000080: 72f6 fb3d b93b 8b3e f8b3 0d3e e557 463e
00000090: 2055 8a3e 1c4a 0abd 2d0b 9e3d fcd5 00bd
000000a0: fb47 803d e063 533e c10c eb3d a602 3abc
000000b0: 38fd 113e 178c 12bc 3fa7 223e 5eb3 3b3c
000000c0: d1ab ba3d 8f37 973b 11fa 6a3d 326c 1c3e
000000d0: 9a82 00bd 98b2 523c e611 183d e219 853d
000000e0: 38ee 823e b693 913e 3a50 8bbd 3f1a 1bbd
000000f0: dd24 37bc 9c14 393e 9a1f 103e 8080 223e
00000100: a87d a93d 4f56 0b3e 45bb 0a3e b818 d83d
00000110: ab16 433e c3a7 3b3e d07a b6bc 350d 0b3e
00000120: 466d 023e 50a8 c53d bc0b da3d b01e 313e
00000130: e10f ed3b 716d c53c db2a 6f3e 97e2 893d
00000140: 80aa b03d d611 293d 15d3 513e 7fa3 003e
00000150: e431 573d fcd6 273e fcad 2bbd 624f 483e
00000160: 78d6 c73d 8836 133d 5faf 4e3e 99ab 01bc
00000170: 93b7 313e ca01 72bc b599 25bc 4fd4 dc3d
00000180: 5ca1 3d3e bfda 313e 3b2a 26bd 0423 073e
00000190: a0da 733d d22d 963d eac8 143d 80c5 983d
000001a0: e920 05bc 95e4 413e c688 ce3d 304b 0e3e
000001b0: edec 7bba 43e3 633e 5175 a63c b6e9 903e
000001c0: b6b5 d63d fda5 60bc 5539 1a3e d258 923e
000001d0: 493e cd3b bed3 1a3e cc5f 8b3d 2d33 163e
000001e0: 72ff 863e 4bc9 8c3e 8e2a 0f3d 4885 983e
000001f0: 8fd6 f43d 52d4 803e e7f6 203c a640 c23d

main.initial:128:batchnorm.running_mean f4 [128]
0.0010114413 0.0005454167 -0.001238796 0.0012400419 0.0007789068 0.00064484304 8.130712e-05 0.00023033912
0.0012997547 -0.00026198573 0.00055301236 0.0003518657 0.0005466673 -0.0010701672 0.00044417064 -0.0004837899
0.0003601117 -0.0013036836 0.00011584117 0.00018635753 -0.00085598085 -0.00078452984 -0.0013371203 0.00045085564
-0.001637254 0.00029962065 0.00065345113 0.0008492354 0.00043240463 -0.000778969 -0.0006641452 0.00079845416
-0.00078003545 0.00022962873 -0.0004994171 0.00051767833 -0.00089448853 -0.0011956455 3.902243e-06 -0.00061732915
-0.0003108696 -1.538706e-06 1.353095e-05 -0.0008782821 0.0012102975 -0.00020285169 -0.0005265361 -0.00067307416
-0.0014397763 -0.000113994254 0.0005292142 0.0008131565 0.0015855592 -0.002291353 0.00066812395 -0.00028595817
-0.00074921385 -0.0017220486 0.0011393061 5.16162e-05 0.00068713323 -0.0013758481 0.0009229895 0.0003444235
-0.0016640584 -0.0019009985 0.0007298851 0.00045345834 0.0008789434 0.00036515147 -0.00053579285 -4.8354534e-05
0.00043283578 0.0015567526 -0.00057734177 0.00032170556 0.00049312646 -0.00028875022 -0.0013957629 -0.0011251607
0.00062592136 0.00058037165 -0.00059320696 -0.0007054928 -0.00134856 5.331767e-05 -0.0007270707 -0.00059821684
-0.00039132568 -0.00093760964 -0.00024008594 -0.00071674486 0.00018855305 -0.000115601404 0.00024135581 -0.00044669476
-0.0007828286 -0.0019187379 0.00063608936 -0.00031143983 -0.00074024434 -0.00044352977 -0.00043166478 -0.00068065885
-0.0001548012 0.00023047627 -0.00018201089 -0.00019166533 -0.0014303117 -0.00011601451 0.00068782776 0.00037971124
-0.00052463886 -0.001466355 -0.00025524735 0.00059716316 0.00064107287 -0.00020485568 -0.0010035489 0.00023321716
-0.00062092324 -0.000548739 -0.0015738837 -0.00072042836 0.0012619966 -0.0005578026 0.000180456 0.0005456187
00000000: 5792 843a 4cfa 0e3a 195f a2ba e788 a23a
00000010: 8d2f 4c3a af0a 293a 6d83 aa38 3087 7139
00000020: 885c aa3a 215b 89b9 08f8 103a 9d7a b839
00000030: 394e 0f3a da44 8cba 93df e839 2ea5 fdb9
00000040: 60cd bc39 5de0 aaba c1ef f238 f868 4339
00000050: e763 60ba e8a8 4dba 5042 afba d260 ec39
00000060: 2199 d6ba 6716 9d39 5d4c 2b3a 399f 5e3a
00000070: 5eb4 e239 ba33 4cba 081a 2eba 5a4f 513a
00000080: 4b7b 4cba 7ec8 7039 50eb 02ba ceb4 073a
00000090: 1c7c 6aba 35b7 9cba 03f0 8236 42d4 21ba
000000a0: 36fc a2b9 8985 ceb5 fd02 6337 843c 66ba
000000b0: d8a2 9e3a 96b4 54b9 3d07 0aba 3e71 30ba
000000c0: e0b6 bcba 3310 efb8 f7ba 0a3a 022a 553a
000000d0: 8ad2 cf3a 862a 16bb 0a25 2f3a a8ec 95b9
000000e0: e466 44ba 5db6 e1ba c554 953a 797e 5838
000000f0: bb20 343a cd55 b4ba c7f4 713a bd93 b439
00000100: 891c daba ed2a f9ba c355 3f3a 26be ed39
00000110: e568 663a cd71 bf39 7374 0cba 49d0 4ab8
00000120: 3cee e239 f30b cc3a c058 17ba 97aa a839
00000130: 2845 013a 6663 97b9 08f2 b6ba 217a 93ba
00000140: df14 243a 1524 183a 7281 1bba d2f0 38ba
00000150: 2ac2 b0ba 6aa1 5f38 e498 3eba a7d1 1cba
00000160: d82a cdb9 ebc9 75ba 94bf 7bb9 efe3 3bba
00000170: 53b6 4539 086f f2b8 7514 7d39 5b32 eab9
00000180: bd36 4dba 297e fbba 3cbf 263a bf48 a3b9
00000190: f50c 42ba 8f89 e8b9 1151 e2b9 3e6e 32ba
000001a0: 2152 22b9 01ac 7139 2dda 3eb9 c5f9 48b9
000001b0: 4c79 bbba d14c f3b8 574f 343a fb13 c739
000001c0: eb87 09ba b632 c0ba b8d2 85b9 f18a 1c3a
000001d0: ac0d 283a 87ce 56b9 8389 83ba c18b 7439
000001e0: 74c5 22ba 40d9 0fba c64a ceba 21db 3cba
000001f0: 9469 a53a 8039 12ba ca38 3d39 da07 0f3a

main.initial:128:batchnorm.running_var f4 [128]
0.011202473 0.012937067 0.013147352 0.014852976 0.012073247 0.012670127 0.013142845 0.013454862
0.014459517 0.011053469 0.01442098 0.012648549 0.012626295 0.012289538 0.011102307 0.011447517
0.013331137 0.014223607 0.013277535 0.013976111 0.011942952 0.011155275 0.013387474 0.011215436
0.013483187 0.014018393 0.013339933 0.013364005 0.013356131 0.011530587 0.012832823 0.012112864
0.0128549645 0.0129300915 0.011551251 0.011243591 0.0155193955 0.012422826 0.01316614 0.012853402
0.012824483 0.013042768 0.012912874 0.012289993 0.013819846 0.012737492 0.013339399 0.012156867
0.012464218 0.012456881 0.013981529 0.014490198 0.013660881 0.013180958 0.011779974 0.012396192
0.014137278 0.01299543 0.011808517 0.013114031 0.012319189 0.011671852 0.011838527 0.012100113
0.0127161555 0.0121848 0.012605781 0.012032564 0.012674714 0.013027459 0.012372838 0.012746919
0.013189183 0.012631051 0.0120917065 0.012506972 0.01318696 0.011596153 0.01165209 0.013136101
0.011406898 0.012359475 0.012624866 0.011661633 0.01110196 0.01349367 0.011324315 0.013519577
0.011390239 0.012044527 0.012319595 0.012939633 0.013202343 0.012410379 0.01389172 0.013322056
0.013233486 0.011810077 0.013117315 0.0125272935 0.011437686 0.013942607 0.0135735385 0.013904908
0.01124845 0.014138259 0.0139779225 0.01301325 0.013744231 0.011900881 0.012725504 0.013432103
0.014166497 0.013339693 0.0132240495 0.012491893 0.01477489 0.013096718 0.0111656515 0.014213021
0.013342172 0.015013256 0.013427691 0.014141343 0.011104048 0.012827223 0.012377557 0.011584186
00000000: 948a 373c fef5 533c fe67 573c e659 733c
00000010: dece 453c 5d96 4f3c 1655 573c c871 5c3c
00000020: 9ce7 6c3c 9c19 353c f945 6c3c dc3b 4f3c
00000030: 85de 4e3c 0f5a 493c 73e6 353c 5e8e 3b3c
00000040: d76a 5a3c 220a 693c 058a 593c 0ffc 643c
00000050: 5fac 433c 9dc4 363c 2357 5b3c f3c0 373c
00000060: 96e8 5c3c 67ad 653c bc8f 5a3c b3f4 5a3c
00000070: acd3 5a3c caea 3c3c c340 523c 0975 463c
00000080: a19d 523c bcd8 533c 7541 3d3c 0a37 383c
00000090: 1045 7e3c 1c89 4b3c cbb6 573c 1397 523c
000000a0: c81d 523c 56b1 553c 8590 533c f85b 493c
000000b0: a36c 623c eab0 503c 7f8d 5a3c 992d 473c
000000c0: b836 4c3c f217 4c3c c812 653c 4c68 6d3c
000000d0: e3d1 5f3c f2f4 573c cb00 413c 6619 4b3c
000000e0: 0ba0 673c c9ea 543c 8378 413c 3cdc 563c
000000f0: 6cd6 493c 4c3b 3f3c 62f6 413c 8d3f 463c
00000100: 6c57 503c c1a2 473c 7a88 4e3c 3b24 453c
00000110: 9ba9 4f3c 2071 553c 72b7 4a3c 74d8 503c
00000120: 7117 583c 78f2 4e3c 4b1c 463c 0bea 4c3c
00000130: 1e0e 583c cafd 3d3c 68e8 3e3c cd38 573c
00000140: ffe3 3a3c 657f 4a3c 87d8 4e3c 6f10 3f3c
00000150: ffe4 353c 8e14 5d3c 9f89 393c 3781 5d3c
00000160: 209e 3a3c 6856 453c 20d8 493c c100 543c
00000170: a44e 583c e754 4b3c 199a 633c c144 5a3c
00000180: 43d1 583c 0e7f 413c 02ea 563c 473f 4d3c
00000190: 2265 3b3c 886f 643c 8c63 5e3c 69d1 633c
000001a0: 6b4b 383c 28a4 673c a803 653c 8735 553c
000001b0: 7c2f 613c eafb 423c a27e 503c 5312 5c3c
000001c0: 981a 683c ba8e 5a3c afa9 583c ccaa 4c3c
000001d0: 6112 723c 9e93 563c 23f0 363c bbdd 683c
000001e0: 2099 5a3c 29fa 753c d1ff 5b3c 17b1 673c
000001f0: c1ed 353c 4629 523c 3dcb 4a3c 99cb 3d3c

main.pyramid:128-64:convt.weight f4 [128, 64, 4, 4]
-0.020513 0.0047079558 -0.041226804 0.028989153 0.01327742 0.022941664 0.053677026 -0.013868651
-0.029613622 -0.013875275 0.0048806644 -0.04430379 -0.0031188931 -0.012195988 -0.02436736 -0.015549404
-0.025453107 -0.00948468 0.0037497964 0.013870536 0.017839702 0.012424581 -0.027613698 0.028980795
0.009562683 0.0018694166 -0.0012564756 -0.012291304 0.0021642605 0.0026501836 0.0026120872 -0.0005695298
-0.022215733 -0.0005874367 0.009621998 -0.002011423 0.026635174 -0.008214905 -0.009871844 -0.034969408
-0.026193557 -0.025482234 0.010723555 -0.01788222 -0.00079233246 0.019928154 0.036063004 -0.011099089
0.0070465673 -0.012761503 0.0048031374 -0.038209587 0.012676481 0.0020427715 -0.016234742 -0.048669137
0.0014229438 -0.009750459 0.0019451753 -0.0030841036 -0.00019636558 0.013048958 -0.018654611 -0.006497323
-0.0064201136 -0.026992908 -0.03629018 -0.028670564 -0.014987342 0.021562925 0.015340471 0.006236847
0.02222966 0.020237392 0.02882037 -0.0019628305 -0.03424335 -0.01079868 -0.0012307254 0.014961619
-0.04832536 -0.03067238 -0.010421076 -0.014847641 -0.019541645 -0.0065265484 0.0143103795 0.008733661
-0.017825652 -0.02448177 0.027110685 -0.020347806 -0.03947719 -0.02250205 -0.029280722 0.0006973321
-0.004609563 0.0028844518 -0.015009758 0.0056569907 0.00092369044 0.0010018183 -0.011925113 0.006359454
-0.048518963 -0.02390249 -0.019843241 -0.014285228 -0.025262512 -0.0043063783 -0.041197225 -0.021801917
0.007384203 -0.024345046 -0.0007117236 -0.022106374 0.00065614027 0.027390905 0.027204994 0.005064038
0.011436089 -0.0047724117 0.019999396 -0.011047886 0.028853597 -0.0076835398 -0.013395907 -0.051284842
-0.027389297 -0.021684004 -0.028641084 -0.026727967 -0.021180231 0.0025033702 -0.01140189 0.006543989
-0.007638547 -0.020409634 0.012017748 0.0014732671 -0.046589755 -0.0021608272 0.0039983275 -0.050875504
0.005949018 -0.0075684944 -0.029057981 0.015585789 0.01623619 -0.0029576586 0.0032467758 0.005125879
-0.0022612582 -0.0077783484 0.008383471 -0.011738723 -0.004734048 0.020049673 -0.020406242 0.0030480064
-0.01594888 0.0042842655 0.017426997 -0.027029585 -0.0058451523 0.01479725 -0.0029725092 -0.0052927854
-0.029878264 -0.010716236 -0.012461208 -0.010245824 -0.004381464 -0.0072783804 0.012781882 -0.011296667
-0.0106069185 -0.026507616 -0.06841099 -0.016856026 -0.009255334 -0.0037508868 -0.031227045 0.0036042407
-0.02285139 0.0023116514 -0.018073626 0.008332791 -0.007841575 0.040197965 -0.01373509 -0.026089456
0.027438948 -0.0023983563 -0.016675053 -0.033349093 0.034536615 -0.011117526 -0.009264136 -0.034029387
0.01911826 -0.021778958 -0.020375645 -0.040304735 -0.009751871 -0.013394124 -0.023510758 -0.0084241545
-0.080249414 -0.05251198 -0.0045515094 -0.02332844 -0.08336609 -0.0024972036 -0.06977932 0.015590924
0.0023879486 0.005429242 0.018767547 0.013421368 -0.038250186 -0.024931012 0.027596084 -0.03819094
-0.007115805 0.0027176307 -0.022435203 0.006599526 -0.0053369305 0.00623289 0.0049121636 0.0031091091
0.010893024 0.010890724 0.026058586 0.0145472335 -0.027188325 0.0043664724 -0.0020261067 -0.0037433754
0.00477401 -0.0025444 -0.07333786 0.0040143644 0.0001758209 -0.029784203 -0.040822405 -0.01841857
0.016646266 -0.0007195203 -0.03347756 -0.021535905 0.0013437317 -0.037320662 0.027707148 -0.01883409
00000000: e10a a8bc 3245 9a3b 70dd 28bd a97a ed3c
00000010: 8989 593c 28f0 bb3c 71dc 5b3d 5739 63bc
00000020: 4498 f2bc 1f55 63bc fbed 9f3b e477 35bd
00000030: 5866 4cbb aed1 47bc 0f9e c7bc edc2 7ebc
00000040: 0983 d0bc a265 1bbc 25bf 753b 3f41 633c
00000050: 9124 923c 7890 4b3c 1f36 e2bc 2269 ed3c
00000060: cdac 1c3c 3607 f53a 53b0 a4ba 7761 49bc
00000070: 44d6 0d3b b4ae 2d3b 8d2f 2b3b 7f4c 15ba
00000080: c5fd b5bc 36fe 19ba 96a5 1d3c 14d2 03bb
00000090: 0232 da3c cf97 06bc 84bd 21bc 153c 0fbd
000000a0: df93 d6bc 1ec0 d0bc dab1 2f3c bc7d 92bc
000000b0: 88b4 4fba 5e40 a33c cdb6 133d f4d8 35bc
000000c0: e4e6 e63b a015 51bc a363 9d3b a881 1cbd
000000d0: 04b1 4f3c 05e0 053b b9fe 84bc 4a59 47bd
000000e0: 1282 ba3a 64c0 1fbc 41f5 fe3a ac1e 4abb
000000f0: 7ce7 4db9 4ccb 553c 8ed1 98bc 7fe7 d4bb
00000100: d15f d2bb 3b20 ddbc 03a5 14bd 88de eabc
00000110: 788d 75bc bba4 b03c 9956 7b3c 775e cc3b
00000120: fa1a b63c e3c8 a53c b218 ec3c d5a2 00bb
00000130: c142 0cbd f2ec 30bc 4b50 a1ba 9421 753c
00000140: d0f0 45bd a544 fbbc 29bd 2abc 8543 73bc
00000150: cd15 a0bc a8dc d5bb 1576 6a3c a117 0f3c
00000160: 1a07 92bc fe8d c8bc 3a17 de3c 71b0 a6bc
00000170: d5b2 21bd 3856 b8bc 20de efbc 2acd 363a
00000180: d10b 97bb 1209 3d3b 7deb 75bc 475e b93b
00000190: d123 723a 724f 833a 8d61 43bc f762 d03b
000001a0: d2bb 46bd 28cf c3bc 4b8e a2bc 970c 6abc
000001b0: 54f3 cebc 851c 8dbb 6cbe 28bd ef99 b2bc
000001c0: 2ff7 f13b 436f c7bc f692 3aba 6d18 b5bc
000001d0: d400 2c3a e462 e03c 02dd de3c 3bf0 a53b
000001e0: 6f5e 3b3c e461 9cbb c6d5 a33c 3102 35bc
000001f0: 615e ec3c 34c6 fbbb 827a 5bbc 0e10 52bd
00000200: 855f e0bc a7a2 b1bc b5a0 eabc 9cf4 dabc
00000210: 2a82 adbc 950f 243b fece 3abc f56e d63b
00000220: c74c fabb 1b32 a7bc 17e6 443c a41a c13a
00000230: e6d4 3ebd aa9c 0dbb 6704 833b d562 50bd
00000240: fbef c23b 2201 f8bb 010b eebc 8a5b 7f3c
00000250: c201 853c 47d5 41bb dcc7 543b fdf6 a73b
00000260: 9e31 14bb 84e1 febb d35a 093c c653 40bc
00000270: 1320 9bbb 363f a43c fe2a a7bc 10c1 473b
00000280: 3aa7 82bc 0663 8c3b 10c3 8e3c 266d ddbc
00000290: b188 bfbb 2a70 723c 6ece 42bb 1a6f adbb
000002a0: 43c3 f4bc 2793 2fbc 182a 4cbc 1ade 27bc
000002b0: 6292 8fbb 7b7f eebb 196b 513c a815 39bc
000002c0: a4c8 2dbc 8026 d9bc 101b 8cbd a615 8abc
000002d0: afa3 17bc 70d1 75bb dccf ffbc 2035 6c3b
000002e0: d732 bbbc 137f 173b 240f 94bc 4286 083c
000002f0: f379 00bc 9fa6 243d 2509 61bc 8eb9 d5bc
00000300: a5c7 e03c be2d 1dbb 1f9a 88bc 0f99 08bd
00000310: 4476 0d3d 4926 36bc 9ac8 17bc 6662 0bbd
00000320: e69d 9c3c c969 b2bc d3ea a6bc 9416 25bd
00000330: 50c6 1fbc 0773 5bbc a299 c0bc 7705 0abc
00000340: ce59 a4bd cd16 57bd d424 95bb 491b bfbc
00000350: d7bb aabd 20a8 23bb 76e8 8ebd 1371 7f3c
00000360: 217f 1c3b c8e7 b13b 66be 993c 4ce5 5b3c
00000370: 3aac 1cbd 1f3c ccbc 2f11 e23c 1a6e 1cbd
00000380: b32b e9bb 471a 323b 08ca b7bc d640 d83b
00000390: 6be1 aebb 453d cc3b 37f6 a03b 32c2 4b3b
000003a0: a778 323c 026f 323c d178 d53c 8557 6e3c
000003b0: 0dba debc a014 8f3b 6ec8 04bb 6b53 75bb
000003c0: 4c6f 9c3b f3bf 26bb 2932 96bd ee8a 833b
000003d0: 905c 3839 00fe f3bc 6535 27bd 8ae2 96bc
000003e0: c05d 883c 319e 3cba c41f 09bd 116c b0bc
000003f0: 2720 b03a 8ddd 18bd 1afa e23c f349 9abc

main.pyramid:64:batchnorm.weight f4 [64]
0.9822018 1.0104998 0.99195665 0.99707925 0.98353136 0.9908547 1.0304128 0.9217534
1.0172205 0.9735777 1.0182154 0.98323184 1.0011934 1.1960651 0.92900956 1.0744838
1.0108999 0.9567689 0.99167675 0.9836724 1.0004224 0.9793972 0.9451522 1.0091552
1.0256289 0.94806254 0.9667483 0.97192144 0.94838744 0.9700886 1.0084928 0.9803171
0.9662388 1.0413073 0.97397524 0.9867798 0.9992144 1.0013402 1.0011034 0.9557017
0.9680132 1.0317826 0.9903087 1.0216066 0.9722247 1.1505817 1.0023497 1.0347011
0.9046202 0.93288285 0.99112415 0.98337984 0.97190386 1.0428846 0.9743175 1.0026525
0.96145916 0.93591833 0.9476784 0.91804886 1.0337263 0.99543107 0.98121846 0.9844795
00000000: 9471 7b3f 0f58 813f dff0 7d3f 9640 7f3f
00000010: b6c8 7b3f a7a8 7d3f 91e4 833f 08f8 6b3f
00000020: 4834 823f 633c 793f e254 823f 15b5 7b3f
00000030: 1b27 803f a918 993f 92d3 6d3f af88 893f
00000040: 2b65 813f ceee 743f 87de 7d3f f4d1 7b3f
00000050: d70d 803f c6b9 7a3f 7ff5 713f ff2b 813f
00000060: cf47 833f 3ab4 723f d17c 773f d8cf 783f
00000070: 85c9 723f ba57 783f 4b16 813f 10f6 7a3f
00000080: 6d5b 773f 8f49 853f 7156 793f 9a9d 7c3f
00000090: 84cc 7f3f ea2b 803f 2824 803f dea8 743f
000000a0: b7cf 773f 7411 843f df84 7d3f 01c4 823f
000000b0: b8e3 783f 4346 933f ff4c 803f 1671 843f
000000c0: 3095 673f 69d1 6e3f 50ba 7d3f c8be 7b3f
000000d0: b1ce 783f 3e7d 853f df6c 793f eb56 803f
000000e0: 3022 763f 5898 6f3f 0d9b 723f 4005 6b3f
000000f0: 2551 843f 92d4 7e3f 2231 7b3f d906 7c3f

main.pyramid:64:batchnorm.bias f4 [64]
0.07327747 0.11912571 -0.061946087 0.07512527 0.0592914 0.026845152 0.042754788 -0.014402814
0.10409995 -0.010071145 0.052095566 0.10071196 0.029322753 -0.06740029 0.06560136 -0.009954539
0.000743392 0.053869486 0.011559318 -0.025235213 -0.005973382 0.010693808 0.036695227 0.07448567
0.071501516 0.09021867 0.04435942 0.039095204 0.053004313 -0.022208968 0.041115027 0.09375987
0.1266233 0.03672748 0.011423366 0.031472657 0.054833654 0.017473169 0.048153877 0.14066301
0.030687673 0.007927657 0.07850875 0.04021693 0.065507114 -0.0038045617 0.0069986386 0.039946865
0.06255853 0.029330017 0.03179955 0.12113198 0.015021795 0.20712194 0.017963381 0.06277407
0.053238288 0.030942108 0.051701117 -0.0102837 0.10507623 0.022594083 0.0011102916 0.031262457
00000000: 8012 963d 2ef8 f33d 2ebb 7dbd 47db 993d
00000010: 8adb 723d 5dea db3c a51f 2f3d c8f9 6bbc
00000020: 5b32 d53d 7201 25bc 2962 553d 1242 ce3d
00000030: 4536 f03c 2a09 8abd 015a 863d 5d18 23bc
00000040: 31e0 423a 40a6 5c3d 4b63 3d3c 14ba cebc
00000050: 5cbc c3bb 1535 2f3c bc4d 163d f18b 983d
00000060: 636f 923d 91c4 b83d 39b2 353d 4b22 203d
00000070: 0d1b 593d 95ef b5bc 3b68 283d 2d05 c03d
00000080: 8aa9 013e 8e6f 163d 1229 3b3c 79e9 003d
00000090: 4199 603d e423 8f3c 003d 453d f709 103e
000000a0: b764 fb3c 01e3 013c 32c9 a03d 82ba 243d
000000b0: 9828 863d f455 79bb d654 e53b 539f 233d
000000c0: b01e 803d 8145 f03c 3f40 023d 0b14 f83d
000000d0: fa1d 763c c617 543e f127 933c b18f 803d
000000e0: 6410 5a3d 4e7a fd3c 8dc4 533d f77c 28bc
000000f0: 3532 d73d 3a17 b93c 3487 913a 100d 003d

main.pyramid:64:batchnorm.running_mean f4 [64]
-0.087274805 0.017524384 -0.073272355 -0.0620716 0.07988622 -0.23306231 -0.20786801 -0.086779356
-0.00013445354 -0.110717304 -0.17317098 0.2122217 -0.11780445 -0.055525586 -0.21648075 -0.12897669
-0.08831631 -0.18244873 -0.19688757 -0.06865066 -0.12678516 -0.10918758 -0.036747433 0.001667377
0.00045006492 -0.0031190508 -0.033645205 -0.03497954 -0.2208961 -0.20523915 0.2243103 0.12174375
-0.30657163 -0.20180137 -0.28997755 0.16411175 0.094155364 -0.009835767 -0.055063672 -0.12341905
0.022549234 -0.13969302 -0.068020105 0.08153842 -0.17981914 -0.057400767 0.05584167 -0.06906787
0.04278716 -0.1792557 -0.24332929 -0.17826907 -0.08478569 -0.12521489 -0.1666533 -0.028021263
0.10159101 -0.09897166 -0.10343845 -0.18876663 -0.044301447 0.030954795 0.17790905 -0.26719126
00000000: 22bd b2bd 4c8f 8f3c d10f 96bd ca3e 7ebd
00000010: 639b a33d e3a7 6ebe 5adb 54be 60b9 b1bd
00000020: 19fc 0cb9 c1bf e2bd bc53 31be a550 593e
00000030: 7643 f1bd cc6e 63bd 21ad 5dbe 7712 04be
00000040: 2edf b4bd d7d3 3abe e59c 49be b898 8cbd
00000050: f8d3 01be bd9d dfbd 7a84 16bd e38b da3a
00000060: b1f6 eb39 fd68 4cbb 8ecf 09bd b546 0fbd
00000070: 9632 62be 362a 52be 99b1 653e ca54 f93d
00000080: f5f6 9cbe 05a5 4ebe f077 94be e90c 283e
00000090: 87d4 c03d 3226 21bc 728a 61bd 20c3 fcbd
000000a0: 2cb9 b83c b00b 0fbe 204e 8bbd 9dfd a63d
000000b0: 8222 38be 111d 6bbd 3cba 643d 7573 8dbd
000000c0: 9741 2f3d ce8e 37be 502b 79be 2b8c 36be
000000d0: 1fa4 adbd 5538 00be 2aa7 2abe d98c e5bc
000000e0: f30e d03d a7b1 cabd 8ad7 d3bd 0a4c 41be
000000f0: 6f75 35bd e994 fd3c ca2d 363e 4bcd 88be

main.pyramid:64:batchnorm.running_var f4 [64]
0.08256897 0.06397164 0.06839518 0.0677993 0.06533706 0.080288276 0.08401933 0.093781374
0.07562529 0.07087045 0.07282535 0.06535774 0.12299192 0.055477668 0.092629686 0.06967251
0.07695241 0.09565684 0.107681215 0.0719971 0.08617209 0.069677755 0.07399364 0.06835693
0.065025434 0.0584694 0.05941904 0.059944276 0.073122956 0.08751377 0.07166832 0.060886193
0.079087056 0.0665316 0.11485107 0.06900292 0.06267707 0.08097109 0.09961201 0.06948745
0.06282366 0.09900567 0.06734378 0.05991422 0.08092071 0.1263525 0.093843326 0.08989678
0.13520892 0.08840775 0.09185053 0.07727791 0.061522752 0.07434064 0.06731771 0.06122651
0.06284988 0.07647881 0.095332794 0.0799829 0.06284077 0.11440984 0.07469379 0.20703998
00000000: ec19 a93d 9003 833d c612 8c3d 5cda 8a3d
00000010: 70cf 853d 2e6e a43d 5412 ac3d 7310 c03d
00000020: 6fe1 9a3d 8724 913d 7525 953d 47da 853d
00000030: 30e3 fb3d 8d3c 633d a2b4 bd3d 76b0 8e3d
00000040: 3a99 9d3d bce7 c33d f887 dc3d 3773 933d
00000050: fe7a b03d 36b3 8e3d fa89 973d b8fe 8b3d
00000060: 0e2c 853d 9c7d 6f3d 6161 733d 2188 753d
00000070: 7dc1 953d 6b3a b33d d7c6 923d cd63 793d
00000080: 65f8 a13d b841 883d 0a37 eb3d 6751 8d3d
00000090: d65c 803d 2cd4 a53d 6201 cc3d 704f 8e3d
000000a0: b1a9 803d 7cc3 ca3d 89eb 893d 9d68 753d
000000b0: c2b9 a53d 8d62 013e ee30 c03d ce1b b83d
000000c0: 3574 0a3e 1f0f b53d 211c bc3d e243 9e3d
000000d0: 48ff 7b3d e83f 983d dedd 893d a6c8 7a3d
000000e0: 70b7 803d eca0 9c3d d73d c33d 13ce a33d
000000f0: a9b2 803d b54f ea3d 0ff9 983d 4a02 543e

main.final:64-8:convt.weight f4 [64, 8, 4, 4]
-0.013253382 -0.010030636 -0.01587425 -0.02655192 0.03325205 0.0029280235 -0.0028655117 -0.000822349
-0.00274777 0.013324907 0.008088505 0.009164133 0.0070919036 -4.906889e-05 0.013426208 0.0078180395
-0.003925347 0.016631545 0.01407638 0.015099487 0.0007913131 -0.013205144 -0.017759308 0.023223642
0.0008135798 0.0067868344 0.021255882 0.0004705281 0.0022824353 -0.012708435 0.012692803 -0.010917109
-0.03134346 -0.15167303 0.006738642 -0.011907119 -0.008526046 0.029478213 -0.042824745 -0.022814777
-0.012387458 0.012580131 -0.03748197 0.036794778 -0.033940725 0.039887033 -0.0076916935 -0.002292481
0.024044761 0.090771884 0.024429908 0.009263512 0.003947909 -0.014013798 0.010285041 0.016176542
-0.010071182 -0.021122389 0.0041475557 -0.0040007504 -0.005286704 -0.028296305 0.008567579 -0.0016430721
-0.02786192 0.00809124 -0.011060794 0.018778283 0.006871082 0.012218411 0.0007271944 4.891643e-05
-0.0012094489 -0.0078852745 -0.007656612 -0.014041101 -0.022190515 0.018975882 -0.022613062 0.004512007
0.023917306 0.04735347 -0.019832388 0.010016347 -0.018551791 -0.021366207 0.021905072 0.02653645
-0.007973795 0.005182659 -0.0010339388 -0.011293006 0.04523965 0.0007804008 -0.012870515 -0.012081301
0.04693836 0.026917554 0.011873396 0.009966177 -0.004206096 0.024173751 0.02076181 -0.011584181
0.038531803 0.014212206 -0.002974002 -0.012400172 -0.017902698 -0.015011471 0.006957211 -0.008108241
0.012151793 -0.041045666 -0.020741954 0.0076740123 -0.016819818 0.01519181 -0.013865213 -0.002270449
-0.015399144 -0.011437404 -0.01003443 -0.018612688 0.013346974 0.012507818 -0.0029545315 0.013520496
0.001819185 -0.0032231994 0.016493153 -0.009447175 0.0146466475 0.007757357 0.0033537399 0.0147454515
0.008792154 0.0006748861 0.0093515655 0.0036535845 0.0054910504 -0.012537611 -0.0015752873 -0.021145143
-0.012931166 0.0065228534 -0.005240963 0.012004717 0.004625722 -0.011750424 -0.019539505 0.014172291
-0.0078427205 0.024243103 0.012608865 0.0041291057 0.0007458112 -0.00069047074 0.009035087 -0.0034124854
0.004160649 -0.0032520571 0.012452783 -0.018891543 0.0089196935 -0.009009411 -0.0010853984 -0.016007526
0.004472898 0.030232137 -0.030737061 -0.04672282 -0.016316276 0.0051728347 -0.0011459952 -0.016512757
-0.0016828337 -0.0068737213 0.0005224069 0.002702446 0.0041061994 -0.00065351755 -0.006262122 0.0056188954
0.0023024478 0.0013720654 -0.008136436 -0.0029571247 0.0016520646 0.0035251922 -0.0064203152 -0.011093071
-0.007002177 -0.0077286097 -0.0019231214 -0.0056026257 0.0049279444 0.019718865 0.009408534 0.007862766
-0.01263638 -0.03213439 -0.0015656077 -0.0010436792 0.009906839 -0.0003223862 -0.010789172 0.002405012
0.0069404463 -0.006559518 -0.007925331 -0.005411096 -0.005708117 0.0019440189 0.016797427 0.010487768
-0.004007044 0.0025518036 0.0023981293 0.012995929 0.020854373 0.0112167075 0.0035351787 0.036049355
-0.024581557 0.0051462366 -0.027308324 -0.004542523 -0.0020238112 -0.012416365 -0.0074102827 -0.019750183
-0.01735983 -0.015252319 -0.024015417 -0.021455834 -0.005022398 0.00033877377 0.00076523 0.011813505
0.03696648 0.023163093 0.031061374 0.021995135 -0.024177913 0.007939589 0.010724701 -0.013119545
0.034605727 0.14359525 0.1373028 0.041270297 -0.031251755 0.00017698656 -0.003800539 -0.0035522906
00000000: b724 59bc 8957 24bc b70a 82bc 6a83 d9bc
00000010: 4d33 083d 15e4 3f3b 4fcb 3bbb e892 57ba
00000020: ee13 34bb b650 5a3c a685 043c 2925 163c
00000030: 3363 e83b 52cf 4db8 99f9 5b3c 3c17 003c
00000040: 32a0 80bb e13e 883c 9ea0 663c d763 773c
00000050: 2070 4f3a 635a 58bc f87b 91bc 823f be3c
00000060: 6b46 553a 1864 de3b d120 ae3c 36b1 f639
00000070: e994 153b 0a37 50bc 79f5 4f3c addd 32bc
00000080: 0062 00bd 2d50 1bbe d4cf dc3b 1416 43bc
00000090: d4b0 0bbc 4b7c f13c 0069 2fbd 0ee6 babc
000000a0: c4f4 4abc e51c 4e3c b286 19bd 1fb6 163d
000000b0: 6e05 0bbd 9660 233d 9a0a fcbb 733d 16bb
000000c0: 85f9 c43c 9ce6 b93d 3b21 c83c fcc5 173c
000000d0: 765d 813b 219a 65bc 9782 283c ab84 843c
000000e0: 9901 25bc dc08 adbc 38e8 873b ba18 83bb
000000f0: 163c adbb a7cd e7bc 085f 0c3c 5a5c d7ba
00000100: ae3e e4bc 1f91 043c 5538 35bc ead4 993c
00000110: d026 e13b bb2f 483c 31a1 3e3a 9e2b 4d38
00000120: 5f86 9eba 3d31 01bc 51e4 fabb a50c 66bc
00000130: e2c8 b5bc 4f73 9b3c 073f b9bc 75d9 933b
00000140: 3aee c33c b6f5 413d 8877 a2bc 9b1b 243c
00000150: edf9 97bc 2f08 afbc 4472 b33c f862 d93c
00000160: 85a4 02bc 4bd3 a93b 3b85 87ba 4d06 39bc
00000170: 364d 393d d093 4c3a dade 52bc a6f0 45bc
00000180: 7042 403d 3482 dc3c a288 423c 2d49 233c
00000190: 4ad3 89bb 0808 c63c ac14 aa3c 94cb 3dbc
000001a0: 86d3 1d3d 50da 683c 79e7 42bb 172a 4bbc
000001b0: aea8 92bc acf2 75bc 51f9 e33b 6dd8 04bc
000001c0: 5018 473c 801f 28bd 08eb a9bc 4876 fb3b
000001d0: b7c9 89bc 12e7 783c eb2a 63bc d0cb 14bb
000001e0: b14c 7cbc f363 3bbc 7367 24bc a379 98bc
000001f0: 44ad 5a3c 97ed 4c3c d0a0 41bb 1285 5d3c
00000200: b871 ee3a 503c 53bb a61c 873c 53c8 1abc
00000210: 7ef8 6f3c 6d31 fe3b 6bca 5b3b e896 713c
00000220: f70c 103c d7ea 303a 4f37 193c fa70 6f3b
00000230: 45ee b33b 8d6a 4dbc df79 ceba 9438 adbc
00000240: 3edd 53bc a9bd d53b 62bc abbb 6faf 443c
00000250: 5e93 973b da84 40bc 5011 a0bc e632 683c
00000260: c17e 00bc 7999 c63c 6a95 4e3c 734d 873b
00000270: 8b82 433a b500 35ba e707 143c 01a4 5fbb
00000280: 0e56 883b 7720 55bb c206 4c3c 70c2 9abc
00000290: e823 123c 359c 13bc ed43 8eba 3722 83bc
000002a0: 6391 923b 63a9 f73c 4acc fbbc 6d60 3fbd
000002b0: b6a9 85bc e280 a93b 3835 96ba c345 87bc
000002c0: 8792 dcba f43c e1bb 22f2 083a 851b 313b
000002d0: 4c8d 863b d250 2bba 7d32 cdbb b61e b83b
000002e0: aae4 163b e0d6 b33a b04e 05bc 52cc 41bb
000002f0: 178a d83a e906 673b 8261 d2bb b6bf 35bc
00000300: 8572 e5bb 4740 fdbb 3f11 fcba 3b96 b7bb
00000310: 987a a13b 7589 a13c 4026 1a3c d5d2 003c
00000320: d208 4fbc 5a9f 03bd 1435 cdba 10cc 88ba
00000330: 4b50 223c f105 a9b9 11c5 30bc 689d 1d3b
00000340: af6c e33b 3af1 d6bb 3fd9 01bc 904f b1bb
00000350: 280b bbbb 73ce fe3a c29a 893c e3d4 2b3c
00000360: 854d 83bb 293c 273b ef29 1d3b e1ec 543c
00000370: cad6 aa3c 48c6 373c 75ae 673b 7da8 133d
00000380: 435f c9bc c3a1 a83b b5b5 dfbc 72d9 94bb
00000390: eba1 04bb 026e 4bbc f5d1 f2bb 23cb a1bc
000003a0: 3436 8ebc dde4 79bc fbbb c4bc 25c4 afbc
000003b0: ee92 a4bb 729d b139 b799 483a 6e8d 413c
000003c0: 2a6a 173d 87c0 bd3c 6c74 fe3c 242f b43c
000003d0: c210 c6bc 0d15 023c a8b6 2f3c 5cf3 56bc
000003e0: bcbe 0d3d a20a 133e 1b99 0c3e 0b0b 293d
000003f0: d701 00bd 7895 3939 7712 79bb 8ccd 68bb
